2025-11-03 17:56:31,111 [INFO]: Transformer(
  (encoder): Encoder(
    (word_embeddings): WordEmbeddings(14813, 192)
    (pe): PositionEmbeddings(200, 192)
    (layers): ModuleList(
      (0): EncoderLayer(
        (attention): MultiHeadAttentionLayer(
          (fc_q): Linear(in_features=192, out_features=192, bias=True)
          (fc_k): Linear(in_features=192, out_features=192, bias=True)
          (fc_v): Linear(in_features=192, out_features=192, bias=True)
          (fc_o): Linear(in_features=192, out_features=192, bias=True)
          (dropout): Dropout(p=0.2, inplace=False)
        )
        (attention_layer_norm): LayerNorm((192,), eps=1e-05, elementwise_affine=True)
        (ff_layer_norm): LayerNorm((192,), eps=1e-05, elementwise_affine=True)
        (positionwise_feedforward): PositionwiseFeedforwardLayer(
          (fc_1): Linear(in_features=192, out_features=512, bias=True)
          (fc_2): Linear(in_features=512, out_features=192, bias=True)
          (dropout): Dropout(p=0.2, inplace=False)
        )
        (attention_dropout): Dropout(p=0.2, inplace=False)
        (ff_dropout): Dropout(p=0.2, inplace=False)
      )
      (1): EncoderLayer(
        (attention): MultiHeadAttentionLayer(
          (fc_q): Linear(in_features=192, out_features=192, bias=True)
          (fc_k): Linear(in_features=192, out_features=192, bias=True)
          (fc_v): Linear(in_features=192, out_features=192, bias=True)
          (fc_o): Linear(in_features=192, out_features=192, bias=True)
          (dropout): Dropout(p=0.2, inplace=False)
        )
        (attention_layer_norm): LayerNorm((192,), eps=1e-05, elementwise_affine=True)
        (ff_layer_norm): LayerNorm((192,), eps=1e-05, elementwise_affine=True)
        (positionwise_feedforward): PositionwiseFeedforwardLayer(
          (fc_1): Linear(in_features=192, out_features=512, bias=True)
          (fc_2): Linear(in_features=512, out_features=192, bias=True)
          (dropout): Dropout(p=0.2, inplace=False)
        )
        (attention_dropout): Dropout(p=0.2, inplace=False)
        (ff_dropout): Dropout(p=0.2, inplace=False)
      )
    )
    (dropout): Dropout(p=0.2, inplace=False)
  )
  (decoder): Decoder(
    (word_embeddings): WordEmbeddings(12476, 192)
    (pe): PositionEmbeddings(200, 192)
    (layers): ModuleList(
      (0): DecoderLayer(
        (self_attention): MultiHeadAttentionLayer(
          (fc_q): Linear(in_features=192, out_features=192, bias=True)
          (fc_k): Linear(in_features=192, out_features=192, bias=True)
          (fc_v): Linear(in_features=192, out_features=192, bias=True)
          (fc_o): Linear(in_features=192, out_features=192, bias=True)
          (dropout): Dropout(p=0.2, inplace=False)
        )
        (attention): MultiHeadAttentionLayer(
          (fc_q): Linear(in_features=192, out_features=192, bias=True)
          (fc_k): Linear(in_features=192, out_features=192, bias=True)
          (fc_v): Linear(in_features=192, out_features=192, bias=True)
          (fc_o): Linear(in_features=192, out_features=192, bias=True)
          (dropout): Dropout(p=0.2, inplace=False)
        )
        (positionwise_feedforward): PositionwiseFeedforwardLayer(
          (fc_1): Linear(in_features=192, out_features=512, bias=True)
          (fc_2): Linear(in_features=512, out_features=192, bias=True)
          (dropout): Dropout(p=0.2, inplace=False)
        )
        (self_attention_layer_norm): LayerNorm((192,), eps=1e-05, elementwise_affine=True)
        (attention_layer_norm): LayerNorm((192,), eps=1e-05, elementwise_affine=True)
        (ff_layer_norm): LayerNorm((192,), eps=1e-05, elementwise_affine=True)
        (self_attention_dropout): Dropout(p=0.2, inplace=False)
        (attention_dropout): Dropout(p=0.2, inplace=False)
        (ff_dropout): Dropout(p=0.2, inplace=False)
      )
      (1): DecoderLayer(
        (self_attention): MultiHeadAttentionLayer(
          (fc_q): Linear(in_features=192, out_features=192, bias=True)
          (fc_k): Linear(in_features=192, out_features=192, bias=True)
          (fc_v): Linear(in_features=192, out_features=192, bias=True)
          (fc_o): Linear(in_features=192, out_features=192, bias=True)
          (dropout): Dropout(p=0.2, inplace=False)
        )
        (attention): MultiHeadAttentionLayer(
          (fc_q): Linear(in_features=192, out_features=192, bias=True)
          (fc_k): Linear(in_features=192, out_features=192, bias=True)
          (fc_v): Linear(in_features=192, out_features=192, bias=True)
          (fc_o): Linear(in_features=192, out_features=192, bias=True)
          (dropout): Dropout(p=0.2, inplace=False)
        )
        (positionwise_feedforward): PositionwiseFeedforwardLayer(
          (fc_1): Linear(in_features=192, out_features=512, bias=True)
          (fc_2): Linear(in_features=512, out_features=192, bias=True)
          (dropout): Dropout(p=0.2, inplace=False)
        )
        (self_attention_layer_norm): LayerNorm((192,), eps=1e-05, elementwise_affine=True)
        (attention_layer_norm): LayerNorm((192,), eps=1e-05, elementwise_affine=True)
        (ff_layer_norm): LayerNorm((192,), eps=1e-05, elementwise_affine=True)
        (self_attention_dropout): Dropout(p=0.2, inplace=False)
        (attention_dropout): Dropout(p=0.2, inplace=False)
        (ff_dropout): Dropout(p=0.2, inplace=False)
      )
    )
    (dropout): Dropout(p=0.2, inplace=False)
  )
  (fc): Linear(in_features=192, out_features=12476, bias=True)
)
Trainable parameters: 9406588
2025-11-03 18:03:25,248 [INFO]: Train Epoch: 1 | train_loss: 4.310147 | val_loss: 3.806357 | BLEU: 0.0540 | Acc: 0.3745 | PPL: 44.9863
2025-11-03 18:03:25,407 [INFO]: Saving current best: ./checkpoint\model_best.pt
2025-11-03 18:10:03,777 [INFO]: Train Epoch: 2 | train_loss: 3.949678 | val_loss: 3.654257 | BLEU: 0.0695 | Acc: 0.3942 | PPL: 38.6388
…
2025-11-03 18:56:36,636 [INFO]: Train Epoch: 9 | train_loss: 3.732342 | val_loss: 3.462843 | BLEU: 0.0913 | Acc: 0.4237 | PPL: 31.9076
2025-11-03 19:03:15,286 [INFO]: Train Epoch: 10 | train_loss: 3.726039 | val_loss: 3.497880 | BLEU: 0.0878 | Acc: 0.4168 | PPL: 33.0453
2025-11-03 19:03:15,428 [INFO]: Saving checkpoint: ./checkpoint\checkpoint_epoch_10.pt
2025-11-03 19:48:00,882 [INFO]: Transformer(
  (encoder): Encoder(
    (word_embeddings): WordEmbeddings(14813, 192)
    (pe): PositionEmbeddings(200, 192)
    (layers): ModuleList(
      (0): EncoderLayer(
        (attention): MultiHeadAttentionLayer(
          (fc_q): Linear(in_features=192, out_features=192, bias=True)
          (fc_k): Linear(in_features=192, out_features=192, bias=True)
          (fc_v): Linear(in_features=192, out_features=192, bias=True)
          (fc_o): Linear(in_features=192, out_features=192, bias=True)
          (dropout): Dropout(p=0.2, inplace=False)
        )
        (attention_layer_norm): LayerNorm((192,), eps=1e-05, elementwise_affine=True)
        (ff_layer_norm): LayerNorm((192,), eps=1e-05, elementwise_affine=True)
        (positionwise_feedforward): PositionwiseFeedforwardLayer(
          (fc_1): Linear(in_features=192, out_features=512, bias=True)
          (fc_2): Linear(in_features=512, out_features=192, bias=True)
          (dropout): Dropout(p=0.2, inplace=False)
        )
        (attention_dropout): Dropout(p=0.2, inplace=False)
        (ff_dropout): Dropout(p=0.2, inplace=False)
      )
      (1): EncoderLayer(
        (attention): MultiHeadAttentionLayer(
          (fc_q): Linear(in_features=192, out_features=192, bias=True)
          (fc_k): Linear(in_features=192, out_features=192, bias=True)
          (fc_v): Linear(in_features=192, out_features=192, bias=True)
          (fc_o): Linear(in_features=192, out_features=192, bias=True)
          (dropout): Dropout(p=0.2, inplace=False)
        )
        (attention_layer_norm): LayerNorm((192,), eps=1e-05, elementwise_affine=True)
        (ff_layer_norm): LayerNorm((192,), eps=1e-05, elementwise_affine=True)
        (positionwise_feedforward): PositionwiseFeedforwardLayer(
          (fc_1): Linear(in_features=192, out_features=512, bias=True)
          (fc_2): Linear(in_features=512, out_features=192, bias=True)
          (dropout): Dropout(p=0.2, inplace=False)
        )
        (attention_dropout): Dropout(p=0.2, inplace=False)
        (ff_dropout): Dropout(p=0.2, inplace=False)
      )
      (2): EncoderLayer(
        (attention): MultiHeadAttentionLayer(
          (fc_q): Linear(in_features=192, out_features=192, bias=True)
          (fc_k): Linear(in_features=192, out_features=192, bias=True)
          (fc_v): Linear(in_features=192, out_features=192, bias=True)
          (fc_o): Linear(in_features=192, out_features=192, bias=True)
          (dropout): Dropout(p=0.2, inplace=False)
        )
        (attention_layer_norm): LayerNorm((192,), eps=1e-05, elementwise_affine=True)
        (ff_layer_norm): LayerNorm((192,), eps=1e-05, elementwise_affine=True)
        (positionwise_feedforward): PositionwiseFeedforwardLayer(
          (fc_1): Linear(in_features=192, out_features=512, bias=True)
          (fc_2): Linear(in_features=512, out_features=192, bias=True)
          (dropout): Dropout(p=0.2, inplace=False)
        )
        (attention_dropout): Dropout(p=0.2, inplace=False)
        (ff_dropout): Dropout(p=0.2, inplace=False)
      )
      (3): EncoderLayer(
        (attention): MultiHeadAttentionLayer(
          (fc_q): Linear(in_features=192, out_features=192, bias=True)
          (fc_k): Linear(in_features=192, out_features=192, bias=True)
          (fc_v): Linear(in_features=192, out_features=192, bias=True)
          (fc_o): Linear(in_features=192, out_features=192, bias=True)
          (dropout): Dropout(p=0.2, inplace=False)
        )
        (attention_layer_norm): LayerNorm((192,), eps=1e-05, elementwise_affine=True)
        (ff_layer_norm): LayerNorm((192,), eps=1e-05, elementwise_affine=True)
        (positionwise_feedforward): PositionwiseFeedforwardLayer(
          (fc_1): Linear(in_features=192, out_features=512, bias=True)
          (fc_2): Linear(in_features=512, out_features=192, bias=True)
          (dropout): Dropout(p=0.2, inplace=False)
        )
        (attention_dropout): Dropout(p=0.2, inplace=False)
        (ff_dropout): Dropout(p=0.2, inplace=False)
      )
    )
    (dropout): Dropout(p=0.2, inplace=False)
  )
  (decoder): Decoder(
    (word_embeddings): WordEmbeddings(12476, 192)
    (pe): PositionEmbeddings(200, 192)
    (layers): ModuleList(
      (0): DecoderLayer(
        (self_attention): MultiHeadAttentionLayer(
          (fc_q): Linear(in_features=192, out_features=192, bias=True)
          (fc_k): Linear(in_features=192, out_features=192, bias=True)
          (fc_v): Linear(in_features=192, out_features=192, bias=True)
          (fc_o): Linear(in_features=192, out_features=192, bias=True)
          (dropout): Dropout(p=0.2, inplace=False)
        )
        (attention): MultiHeadAttentionLayer(
          (fc_q): Linear(in_features=192, out_features=192, bias=True)
          (fc_k): Linear(in_features=192, out_features=192, bias=True)
          (fc_v): Linear(in_features=192, out_features=192, bias=True)
          (fc_o): Linear(in_features=192, out_features=192, bias=True)
          (dropout): Dropout(p=0.2, inplace=False)
        )
        (positionwise_feedforward): PositionwiseFeedforwardLayer(
          (fc_1): Linear(in_features=192, out_features=512, bias=True)
          (fc_2): Linear(in_features=512, out_features=192, bias=True)
          (dropout): Dropout(p=0.2, inplace=False)
        )
        (self_attention_layer_norm): LayerNorm((192,), eps=1e-05, elementwise_affine=True)
        (attention_layer_norm): LayerNorm((192,), eps=1e-05, elementwise_affine=True)
        (ff_layer_norm): LayerNorm((192,), eps=1e-05, elementwise_affine=True)
        (self_attention_dropout): Dropout(p=0.2, inplace=False)
        (attention_dropout): Dropout(p=0.2, inplace=False)
        (ff_dropout): Dropout(p=0.2, inplace=False)
      )
      (1): DecoderLayer(
        (self_attention): MultiHeadAttentionLayer(
          (fc_q): Linear(in_features=192, out_features=192, bias=True)
          (fc_k): Linear(in_features=192, out_features=192, bias=True)
          (fc_v): Linear(in_features=192, out_features=192, bias=True)
          (fc_o): Linear(in_features=192, out_features=192, bias=True)
          (dropout): Dropout(p=0.2, inplace=False)
        )
        (attention): MultiHeadAttentionLayer(
          (fc_q): Linear(in_features=192, out_features=192, bias=True)
          (fc_k): Linear(in_features=192, out_features=192, bias=True)
          (fc_v): Linear(in_features=192, out_features=192, bias=True)
          (fc_o): Linear(in_features=192, out_features=192, bias=True)
          (dropout): Dropout(p=0.2, inplace=False)
        )
        (positionwise_feedforward): PositionwiseFeedforwardLayer(
          (fc_1): Linear(in_features=192, out_features=512, bias=True)
          (fc_2): Linear(in_features=512, out_features=192, bias=True)
          (dropout): Dropout(p=0.2, inplace=False)
        )
        (self_attention_layer_norm): LayerNorm((192,), eps=1e-05, elementwise_affine=True)
        (attention_layer_norm): LayerNorm((192,), eps=1e-05, elementwise_affine=True)
        (ff_layer_norm): LayerNorm((192,), eps=1e-05, elementwise_affine=True)
        (self_attention_dropout): Dropout(p=0.2, inplace=False)
        (attention_dropout): Dropout(p=0.2, inplace=False)
        (ff_dropout): Dropout(p=0.2, inplace=False)
      )
      (2): DecoderLayer(
        (self_attention): MultiHeadAttentionLayer(
          (fc_q): Linear(in_features=192, out_features=192, bias=True)
          (fc_k): Linear(in_features=192, out_features=192, bias=True)
          (fc_v): Linear(in_features=192, out_features=192, bias=True)
          (fc_o): Linear(in_features=192, out_features=192, bias=True)
          (dropout): Dropout(p=0.2, inplace=False)
        )
        (attention): MultiHeadAttentionLayer(
          (fc_q): Linear(in_features=192, out_features=192, bias=True)
          (fc_k): Linear(in_features=192, out_features=192, bias=True)
          (fc_v): Linear(in_features=192, out_features=192, bias=True)
          (fc_o): Linear(in_features=192, out_features=192, bias=True)
          (dropout): Dropout(p=0.2, inplace=False)
        )
        (positionwise_feedforward): PositionwiseFeedforwardLayer(
          (fc_1): Linear(in_features=192, out_features=512, bias=True)
          (fc_2): Linear(in_features=512, out_features=192, bias=True)
          (dropout): Dropout(p=0.2, inplace=False)
        )
        (self_attention_layer_norm): LayerNorm((192,), eps=1e-05, elementwise_affine=True)
        (attention_layer_norm): LayerNorm((192,), eps=1e-05, elementwise_affine=True)
        (ff_layer_norm): LayerNorm((192,), eps=1e-05, elementwise_affine=True)
        (self_attention_dropout): Dropout(p=0.2, inplace=False)
        (attention_dropout): Dropout(p=0.2, inplace=False)
        (ff_dropout): Dropout(p=0.2, inplace=False)
      )
      (3): DecoderLayer(
        (self_attention): MultiHeadAttentionLayer(
          (fc_q): Linear(in_features=192, out_features=192, bias=True)
          (fc_k): Linear(in_features=192, out_features=192, bias=True)
          (fc_v): Linear(in_features=192, out_features=192, bias=True)
          (fc_o): Linear(in_features=192, out_features=192, bias=True)
          (dropout): Dropout(p=0.2, inplace=False)
        )
        (attention): MultiHeadAttentionLayer(
          (fc_q): Linear(in_features=192, out_features=192, bias=True)
          (fc_k): Linear(in_features=192, out_features=192, bias=True)
          (fc_v): Linear(in_features=192, out_features=192, bias=True)
          (fc_o): Linear(in_features=192, out_features=192, bias=True)
          (dropout): Dropout(p=0.2, inplace=False)
        )
        (positionwise_feedforward): PositionwiseFeedforwardLayer(
          (fc_1): Linear(in_features=192, out_features=512, bias=True)
          (fc_2): Linear(in_features=512, out_features=192, bias=True)
          (dropout): Dropout(p=0.2, inplace=False)
        )
        (self_attention_layer_norm): LayerNorm((192,), eps=1e-05, elementwise_affine=True)
        (attention_layer_norm): LayerNorm((192,), eps=1e-05, elementwise_affine=True)
        (ff_layer_norm): LayerNorm((192,), eps=1e-05, elementwise_affine=True)
        (self_attention_dropout): Dropout(p=0.2, inplace=False)
        (attention_dropout): Dropout(p=0.2, inplace=False)
        (ff_dropout): Dropout(p=0.2, inplace=False)
      )
    )
    (dropout): Dropout(p=0.2, inplace=False)
  )
  (fc): Linear(in_features=192, out_features=12476, bias=True)
)
Trainable parameters: 11089020
2025-11-03 19:59:51,943 [INFO]: Train Epoch: 1 | train_loss: 4.521869 | val_loss: 3.988915 | BLEU: 0.0424 | Acc: 0.3512 | PPL: 53.9963
2025-11-03 19:59:52,135 [INFO]: Saving current best: ./checkpoint\model_best.pt
2025-11-03 20:11:12,276 [INFO]: Train Epoch: 2 | train_loss: 4.047177 | val_loss: 3.793430 | BLEU: 0.0588 | Acc: 0.3749 | PPL: 44.4085
…
2025-11-03 21:30:35,436 [INFO]: Train Epoch: 9 | train_loss: 3.755696 | val_loss: 3.538455 | BLEU: 0.0836 | Acc: 0.4077 | PPL: 34.4137
2025-11-03 21:41:51,424 [INFO]: Train Epoch: 10 | train_loss: 3.744133 | val_loss: 3.482307 | BLEU: 0.0893 | Acc: 0.4185 | PPL: 32.5347
2025-11-03 21:41:51,617 [INFO]: Saving current best: ./checkpoint\model_best.pt
2025-11-03 21:41:51,799 [INFO]: Saving checkpoint: ./checkpoint\checkpoint_epoch_10.pt
2025-11-04 15:39:59,297 [INFO]: Transformer(
  (encoder): Encoder(
    (word_embeddings): WordEmbeddings(14813, 192)
    (pe): PositionEmbeddings(200, 192)
    (layers): ModuleList(
      (0-3): 4 x EncoderLayer(
        (attention): MultiHeadAttentionLayer(
          (fc_q): Linear(in_features=192, out_features=192, bias=True)
          (fc_k): Linear(in_features=192, out_features=192, bias=True)
          (fc_v): Linear(in_features=192, out_features=192, bias=True)
          (fc_o): Linear(in_features=192, out_features=192, bias=True)
          (dropout): Dropout(p=0.2, inplace=False)
        )
        (attention_layer_norm): LayerNorm((192,), eps=1e-05, elementwise_affine=True)
        (ff_layer_norm): LayerNorm((192,), eps=1e-05, elementwise_affine=True)
        (positionwise_feedforward): PositionwiseFeedforwardLayer(
          (fc_1): Linear(in_features=192, out_features=512, bias=True)
          (fc_2): Linear(in_features=512, out_features=192, bias=True)
          (dropout): Dropout(p=0.2, inplace=False)
        )
        (attention_dropout): Dropout(p=0.2, inplace=False)
        (ff_dropout): Dropout(p=0.2, inplace=False)
      )
    )
    (dropout): Dropout(p=0.2, inplace=False)
  )
  (decoder): Decoder(
    (word_embeddings): WordEmbeddings(12476, 192)
    (pe): PositionEmbeddings(200, 192)
    (layers): ModuleList(
      (0-3): 4 x DecoderLayer(
        (self_attention): MultiHeadAttentionLayer(
          (fc_q): Linear(in_features=192, out_features=192, bias=True)
          (fc_k): Linear(in_features=192, out_features=192, bias=True)
          (fc_v): Linear(in_features=192, out_features=192, bias=True)
          (fc_o): Linear(in_features=192, out_features=192, bias=True)
          (dropout): Dropout(p=0.2, inplace=False)
        )
        (attention): MultiHeadAttentionLayer(
          (fc_q): Linear(in_features=192, out_features=192, bias=True)
          (fc_k): Linear(in_features=192, out_features=192, bias=True)
          (fc_v): Linear(in_features=192, out_features=192, bias=True)
          (fc_o): Linear(in_features=192, out_features=192, bias=True)
          (dropout): Dropout(p=0.2, inplace=False)
        )
        (positionwise_feedforward): PositionwiseFeedforwardLayer(
          (fc_1): Linear(in_features=192, out_features=512, bias=True)
          (fc_2): Linear(in_features=512, out_features=192, bias=True)
          (dropout): Dropout(p=0.2, inplace=False)
        )
        (self_attention_layer_norm): LayerNorm((192,), eps=1e-05, elementwise_affine=True)
        (attention_layer_norm): LayerNorm((192,), eps=1e-05, elementwise_affine=True)
        (ff_layer_norm): LayerNorm((192,), eps=1e-05, elementwise_affine=True)
        (self_attention_dropout): Dropout(p=0.2, inplace=False)
        (attention_dropout): Dropout(p=0.2, inplace=False)
        (ff_dropout): Dropout(p=0.2, inplace=False)
      )
    )
    (dropout): Dropout(p=0.2, inplace=False)
  )
  (fc): Linear(in_features=192, out_features=12476, bias=True)
)
Trainable parameters: 11089020
2025-11-04 15:42:51,405 [INFO]: Train Epoch: 1 | train_loss: 4.530591 | val_loss: 3.966299 | BLEU: 0.0449 | Acc: 0.3568 | PPL: 52.7888
2025-11-04 15:42:51,650 [INFO]: Saving current best: ./checkpoint/model_best.pt
2025-11-04 15:42:53,270 [INFO]: Transformer(
  (encoder): Encoder(
    (word_embeddings): WordEmbeddings(14813, 192)
    (pe): PositionEmbeddings(200, 192)
    (layers): ModuleList(
      (0-5): 6 x EncoderLayer(
        (attention): MultiHeadAttentionLayer(
          (fc_q): Linear(in_features=192, out_features=192, bias=True)
          (fc_k): Linear(in_features=192, out_features=192, bias=True)
          (fc_v): Linear(in_features=192, out_features=192, bias=True)
          (fc_o): Linear(in_features=192, out_features=192, bias=True)
          (dropout): Dropout(p=0.2, inplace=False)
        )
        (attention_layer_norm): LayerNorm((192,), eps=1e-05, elementwise_affine=True)
        (ff_layer_norm): LayerNorm((192,), eps=1e-05, elementwise_affine=True)
        (positionwise_feedforward): PositionwiseFeedforwardLayer(
          (fc_1): Linear(in_features=192, out_features=512, bias=True)
          (fc_2): Linear(in_features=512, out_features=192, bias=True)
          (dropout): Dropout(p=0.2, inplace=False)
        )
        (attention_dropout): Dropout(p=0.2, inplace=False)
        (ff_dropout): Dropout(p=0.2, inplace=False)
      )
    )
    (dropout): Dropout(p=0.2, inplace=False)
  )
  (decoder): Decoder(
    (word_embeddings): WordEmbeddings(12476, 192)
    (pe): PositionEmbeddings(200, 192)
    (layers): ModuleList(
      (0-5): 6 x DecoderLayer(
        (self_attention): MultiHeadAttentionLayer(
          (fc_q): Linear(in_features=192, out_features=192, bias=True)
          (fc_k): Linear(in_features=192, out_features=192, bias=True)
          (fc_v): Linear(in_features=192, out_features=192, bias=True)
          (fc_o): Linear(in_features=192, out_features=192, bias=True)
          (dropout): Dropout(p=0.2, inplace=False)
        )
        (attention): MultiHeadAttentionLayer(
          (fc_q): Linear(in_features=192, out_features=192, bias=True)
          (fc_k): Linear(in_features=192, out_features=192, bias=True)
          (fc_v): Linear(in_features=192, out_features=192, bias=True)
          (fc_o): Linear(in_features=192, out_features=192, bias=True)
          (dropout): Dropout(p=0.2, inplace=False)
        )
        (positionwise_feedforward): PositionwiseFeedforwardLayer(
          (fc_1): Linear(in_features=192, out_features=512, bias=True)
          (fc_2): Linear(in_features=512, out_features=192, bias=True)
          (dropout): Dropout(p=0.2, inplace=False)
        )
        (self_attention_layer_norm): LayerNorm((192,), eps=1e-05, elementwise_affine=True)
        (attention_layer_norm): LayerNorm((192,), eps=1e-05, elementwise_affine=True)
        (ff_layer_norm): LayerNorm((192,), eps=1e-05, elementwise_affine=True)
        (self_attention_dropout): Dropout(p=0.2, inplace=False)
        (attention_dropout): Dropout(p=0.2, inplace=False)
        (ff_dropout): Dropout(p=0.2, inplace=False)
      )
    )
    (dropout): Dropout(p=0.2, inplace=False)
  )
  (fc): Linear(in_features=192, out_features=12476, bias=True)
)
Trainable parameters: 12771452
2025-11-04 15:44:35,047 [INFO]: Transformer(
  (encoder): Encoder(
    (word_embeddings): WordEmbeddings(14813, 192)
    (pe): PositionEmbeddings(200, 192)
    (layers): ModuleList(
      (0-5): 6 x EncoderLayer(
        (attention): MultiHeadAttentionLayer(
          (fc_q): Linear(in_features=192, out_features=192, bias=True)
          (fc_k): Linear(in_features=192, out_features=192, bias=True)
          (fc_v): Linear(in_features=192, out_features=192, bias=True)
          (fc_o): Linear(in_features=192, out_features=192, bias=True)
          (dropout): Dropout(p=0.2, inplace=False)
        )
        (attention_layer_norm): LayerNorm((192,), eps=1e-05, elementwise_affine=True)
        (ff_layer_norm): LayerNorm((192,), eps=1e-05, elementwise_affine=True)
        (positionwise_feedforward): PositionwiseFeedforwardLayer(
          (fc_1): Linear(in_features=192, out_features=512, bias=True)
          (fc_2): Linear(in_features=512, out_features=192, bias=True)
          (dropout): Dropout(p=0.2, inplace=False)
        )
        (attention_dropout): Dropout(p=0.2, inplace=False)
        (ff_dropout): Dropout(p=0.2, inplace=False)
      )
    )
    (dropout): Dropout(p=0.2, inplace=False)
  )
  (decoder): Decoder(
    (word_embeddings): WordEmbeddings(12476, 192)
    (pe): PositionEmbeddings(200, 192)
    (layers): ModuleList(
      (0-5): 6 x DecoderLayer(
        (self_attention): MultiHeadAttentionLayer(
          (fc_q): Linear(in_features=192, out_features=192, bias=True)
          (fc_k): Linear(in_features=192, out_features=192, bias=True)
          (fc_v): Linear(in_features=192, out_features=192, bias=True)
          (fc_o): Linear(in_features=192, out_features=192, bias=True)
          (dropout): Dropout(p=0.2, inplace=False)
        )
        (attention): MultiHeadAttentionLayer(
          (fc_q): Linear(in_features=192, out_features=192, bias=True)
          (fc_k): Linear(in_features=192, out_features=192, bias=True)
          (fc_v): Linear(in_features=192, out_features=192, bias=True)
          (fc_o): Linear(in_features=192, out_features=192, bias=True)
          (dropout): Dropout(p=0.2, inplace=False)
        )
        (positionwise_feedforward): PositionwiseFeedforwardLayer(
          (fc_1): Linear(in_features=192, out_features=512, bias=True)
          (fc_2): Linear(in_features=512, out_features=192, bias=True)
          (dropout): Dropout(p=0.2, inplace=False)
        )
        (self_attention_layer_norm): LayerNorm((192,), eps=1e-05, elementwise_affine=True)
        (attention_layer_norm): LayerNorm((192,), eps=1e-05, elementwise_affine=True)
        (ff_layer_norm): LayerNorm((192,), eps=1e-05, elementwise_affine=True)
        (self_attention_dropout): Dropout(p=0.2, inplace=False)
        (attention_dropout): Dropout(p=0.2, inplace=False)
        (ff_dropout): Dropout(p=0.2, inplace=False)
      )
    )
    (dropout): Dropout(p=0.2, inplace=False)
  )
  (fc): Linear(in_features=192, out_features=12476, bias=True)
)
Trainable parameters: 12771452
2025-11-04 15:45:44,420 [INFO]: Transformer(
  (encoder): Encoder(
    (word_embeddings): WordEmbeddings(14813, 192)
    (pe): PositionEmbeddings(200, 192)
    (layers): ModuleList(
      (0-5): 6 x EncoderLayer(
        (attention): MultiHeadAttentionLayer(
          (fc_q): Linear(in_features=192, out_features=192, bias=True)
          (fc_k): Linear(in_features=192, out_features=192, bias=True)
          (fc_v): Linear(in_features=192, out_features=192, bias=True)
          (fc_o): Linear(in_features=192, out_features=192, bias=True)
          (dropout): Dropout(p=0.2, inplace=False)
        )
        (attention_layer_norm): LayerNorm((192,), eps=1e-05, elementwise_affine=True)
        (ff_layer_norm): LayerNorm((192,), eps=1e-05, elementwise_affine=True)
        (positionwise_feedforward): PositionwiseFeedforwardLayer(
          (fc_1): Linear(in_features=192, out_features=512, bias=True)
          (fc_2): Linear(in_features=512, out_features=192, bias=True)
          (dropout): Dropout(p=0.2, inplace=False)
        )
        (attention_dropout): Dropout(p=0.2, inplace=False)
        (ff_dropout): Dropout(p=0.2, inplace=False)
      )
    )
    (dropout): Dropout(p=0.2, inplace=False)
  )
  (decoder): Decoder(
    (word_embeddings): WordEmbeddings(12476, 192)
    (pe): PositionEmbeddings(200, 192)
    (layers): ModuleList(
      (0-5): 6 x DecoderLayer(
        (self_attention): MultiHeadAttentionLayer(
          (fc_q): Linear(in_features=192, out_features=192, bias=True)
          (fc_k): Linear(in_features=192, out_features=192, bias=True)
          (fc_v): Linear(in_features=192, out_features=192, bias=True)
          (fc_o): Linear(in_features=192, out_features=192, bias=True)
          (dropout): Dropout(p=0.2, inplace=False)
        )
        (attention): MultiHeadAttentionLayer(
          (fc_q): Linear(in_features=192, out_features=192, bias=True)
          (fc_k): Linear(in_features=192, out_features=192, bias=True)
          (fc_v): Linear(in_features=192, out_features=192, bias=True)
          (fc_o): Linear(in_features=192, out_features=192, bias=True)
          (dropout): Dropout(p=0.2, inplace=False)
        )
        (positionwise_feedforward): PositionwiseFeedforwardLayer(
          (fc_1): Linear(in_features=192, out_features=512, bias=True)
          (fc_2): Linear(in_features=512, out_features=192, bias=True)
          (dropout): Dropout(p=0.2, inplace=False)
        )
        (self_attention_layer_norm): LayerNorm((192,), eps=1e-05, elementwise_affine=True)
        (attention_layer_norm): LayerNorm((192,), eps=1e-05, elementwise_affine=True)
        (ff_layer_norm): LayerNorm((192,), eps=1e-05, elementwise_affine=True)
        (self_attention_dropout): Dropout(p=0.2, inplace=False)
        (attention_dropout): Dropout(p=0.2, inplace=False)
        (ff_dropout): Dropout(p=0.2, inplace=False)
      )
    )
    (dropout): Dropout(p=0.2, inplace=False)
  )
  (fc): Linear(in_features=192, out_features=12476, bias=True)
)
Trainable parameters: 12771452
2025-11-04 15:45:57,746 [INFO]: Train Epoch: 2 | train_loss: 4.054445 | val_loss: 3.788254 | BLEU: 0.0586 | Acc: 0.3761 | PPL: 44.1792
2025-11-04 15:45:57,985 [INFO]: Saving current best: ./checkpoint/model_best.pt
2025-11-04 15:49:03,010 [INFO]: Train Epoch: 3 | train_loss: 3.935247 | val_loss: 3.708948 | BLEU: 0.0645 | Acc: 0.3851 | PPL: 40.8108
…
2025-11-04 15:49:43,969 [INFO]: Train Epoch: 1 | train_loss: 5.177982 | val_loss: 4.553074 | BLEU: 0.0112 | Acc: 0.2698 | PPL: 94.9237
2025-11-04 15:49:44,219 [INFO]: Saving current best: ./checkpoint/en_de_layer6/model_best.pt
2025-11-04 15:52:03,408 [INFO]: Train Epoch: 4 | train_loss: 3.881037 | val_loss: 3.645124 | BLEU: 0.0698 | Acc: 0.3937 | PPL: 38.2875
2025-11-04 15:52:03,650 [INFO]: Saving current best: ./checkpoint/model_best.pt
2025-11-04 15:53:43,580 [INFO]: Transformer(
  (encoder): Encoder(
    (word_embeddings): WordEmbeddings(14813, 192)
    (pe): PositionEmbeddings(200, 192)
    (layers): ModuleList(
      (0-1): 2 x EncoderLayer(
        (attention): MultiHeadAttentionLayer(
          (fc_q): Linear(in_features=192, out_features=192, bias=True)
          (fc_k): Linear(in_features=192, out_features=192, bias=True)
          (fc_v): Linear(in_features=192, out_features=192, bias=True)
          (fc_o): Linear(in_features=192, out_features=192, bias=True)
          (dropout): Dropout(p=0.2, inplace=False)
        )
        (attention_layer_norm): LayerNorm((192,), eps=1e-05, elementwise_affine=True)
        (ff_layer_norm): LayerNorm((192,), eps=1e-05, elementwise_affine=True)
        (positionwise_feedforward): PositionwiseFeedforwardLayer(
          (fc_1): Linear(in_features=192, out_features=512, bias=True)
          (fc_2): Linear(in_features=512, out_features=192, bias=True)
          (dropout): Dropout(p=0.2, inplace=False)
        )
        (attention_dropout): Dropout(p=0.2, inplace=False)
        (ff_dropout): Dropout(p=0.2, inplace=False)
      )
    )
    (dropout): Dropout(p=0.2, inplace=False)
  )
  (decoder): Decoder(
    (word_embeddings): WordEmbeddings(12476, 192)
    (pe): PositionEmbeddings(200, 192)
    (layers): ModuleList(
      (0-1): 2 x DecoderLayer(
        (self_attention): MultiHeadAttentionLayer(
          (fc_q): Linear(in_features=192, out_features=192, bias=True)
          (fc_k): Linear(in_features=192, out_features=192, bias=True)
          (fc_v): Linear(in_features=192, out_features=192, bias=True)
          (fc_o): Linear(in_features=192, out_features=192, bias=True)
          (dropout): Dropout(p=0.2, inplace=False)
        )
        (attention): MultiHeadAttentionLayer(
          (fc_q): Linear(in_features=192, out_features=192, bias=True)
          (fc_k): Linear(in_features=192, out_features=192, bias=True)
          (fc_v): Linear(in_features=192, out_features=192, bias=True)
          (fc_o): Linear(in_features=192, out_features=192, bias=True)
          (dropout): Dropout(p=0.2, inplace=False)
        )
        (positionwise_feedforward): PositionwiseFeedforwardLayer(
          (fc_1): Linear(in_features=192, out_features=512, bias=True)
          (fc_2): Linear(in_features=512, out_features=192, bias=True)
          (dropout): Dropout(p=0.2, inplace=False)
        )
        (self_attention_layer_norm): LayerNorm((192,), eps=1e-05, elementwise_affine=True)
        (attention_layer_norm): LayerNorm((192,), eps=1e-05, elementwise_affine=True)
        (ff_layer_norm): LayerNorm((192,), eps=1e-05, elementwise_affine=True)
        (self_attention_dropout): Dropout(p=0.2, inplace=False)
        (attention_dropout): Dropout(p=0.2, inplace=False)
        (ff_dropout): Dropout(p=0.2, inplace=False)
      )
    )
    (dropout): Dropout(p=0.2, inplace=False)
  )
  (fc): Linear(in_features=192, out_features=12476, bias=True)
)
Trainable parameters: 9406588
2025-11-04 15:53:50,176 [INFO]: Train Epoch: 2 | train_loss: 4.532677 | val_loss: 4.238721 | BLEU: 0.0237 | Acc: 0.3125 | PPL: 69.3191
2025-11-04 15:53:50,481 [INFO]: Saving current best: ./checkpoint/en_de_layer6/model_best.pt
2025-11-04 15:55:20,858 [INFO]: Train Epoch: 5 | train_loss: 3.849702 | val_loss: 3.608519 | BLEU: 0.0722 | Acc: 0.3978 | PPL: 36.9113
…
2025-11-04 16:33:56,218 [INFO]: Saving checkpoint: ./checkpoint/en_de_layer6/checkpoint_epoch_10.pt
2025-11-04 16:36:17,455 [INFO]: Train Epoch: 5 | train_loss: 3.396271 | val_loss: 3.246564 | BLEU: 0.1083 | Acc: 0.4467 | PPL: 25.7019
2025-11-04 16:36:17,710 [INFO]: Saving current best: ./checkpoint/basetest/model_best.pt
2025-11-04 16:36:17,915 [INFO]: Saving checkpoint: ./checkpoint/basetest/checkpoint_epoch_5.pt
2025-11-04 16:36:42,794 [INFO]: Transformer(
  (encoder): Encoder(
    (word_embeddings): WordEmbeddings(14813, 120)
    (pe): PositionEmbeddings(200, 120)
    (layers): ModuleList(
      (0-1): 2 x EncoderLayer(
        (attention): MultiHeadAttentionLayer(
          (fc_q): Linear(in_features=120, out_features=120, bias=True)
          (fc_k): Linear(in_features=120, out_features=120, bias=True)
          (fc_v): Linear(in_features=120, out_features=120, bias=True)
          (fc_o): Linear(in_features=120, out_features=120, bias=True)
          (dropout): Dropout(p=0.2, inplace=False)
        )
        (attention_layer_norm): LayerNorm((120,), eps=1e-05, elementwise_affine=True)
        (ff_layer_norm): LayerNorm((120,), eps=1e-05, elementwise_affine=True)
        (positionwise_feedforward): PositionwiseFeedforwardLayer(
          (fc_1): Linear(in_features=120, out_features=512, bias=True)
          (fc_2): Linear(in_features=512, out_features=120, bias=True)
          (dropout): Dropout(p=0.2, inplace=False)
        )
        (attention_dropout): Dropout(p=0.2, inplace=False)
        (ff_dropout): Dropout(p=0.2, inplace=False)
      )
    )
    (dropout): Dropout(p=0.2, inplace=False)
  )
  (decoder): Decoder(
    (word_embeddings): WordEmbeddings(12476, 120)
    (pe): PositionEmbeddings(200, 120)
    (layers): ModuleList(
      (0-1): 2 x DecoderLayer(
        (self_attention): MultiHeadAttentionLayer(
          (fc_q): Linear(in_features=120, out_features=120, bias=True)
          (fc_k): Linear(in_features=120, out_features=120, bias=True)
          (fc_v): Linear(in_features=120, out_features=120, bias=True)
          (fc_o): Linear(in_features=120, out_features=120, bias=True)
          (dropout): Dropout(p=0.2, inplace=False)
        )
        (attention): MultiHeadAttentionLayer(
          (fc_q): Linear(in_features=120, out_features=120, bias=True)
          (fc_k): Linear(in_features=120, out_features=120, bias=True)
          (fc_v): Linear(in_features=120, out_features=120, bias=True)
          (fc_o): Linear(in_features=120, out_features=120, bias=True)
          (dropout): Dropout(p=0.2, inplace=False)
        )
        (positionwise_feedforward): PositionwiseFeedforwardLayer(
          (fc_1): Linear(in_features=120, out_features=512, bias=True)
          (fc_2): Linear(in_features=512, out_features=120, bias=True)
          (dropout): Dropout(p=0.2, inplace=False)
        )
        (self_attention_layer_norm): LayerNorm((120,), eps=1e-05, elementwise_affine=True)
        (attention_layer_norm): LayerNorm((120,), eps=1e-05, elementwise_affine=True)
        (ff_layer_norm): LayerNorm((120,), eps=1e-05, elementwise_affine=True)
        (self_attention_dropout): Dropout(p=0.2, inplace=False)
        (attention_dropout): Dropout(p=0.2, inplace=False)
        (ff_dropout): Dropout(p=0.2, inplace=False)
      )
    )
    (dropout): Dropout(p=0.2, inplace=False)
  )
  (fc): Linear(in_features=120, out_features=12476, bias=True)
)
Trainable parameters: 5677204
2025-11-04 16:37:18,511 [INFO]: Transformer(
  (encoder): Encoder(
    (word_embeddings): WordEmbeddings(14813, 240)
    (pe): PositionEmbeddings(200, 240)
    (layers): ModuleList(
      (0-1): 2 x EncoderLayer(
        (attention): MultiHeadAttentionLayer(
          (fc_q): Linear(in_features=240, out_features=240, bias=True)
          (fc_k): Linear(in_features=240, out_features=240, bias=True)
          (fc_v): Linear(in_features=240, out_features=240, bias=True)
          (fc_o): Linear(in_features=240, out_features=240, bias=True)
          (dropout): Dropout(p=0.2, inplace=False)
        )
        (attention_layer_norm): LayerNorm((240,), eps=1e-05, elementwise_affine=True)
        (ff_layer_norm): LayerNorm((240,), eps=1e-05, elementwise_affine=True)
        (positionwise_feedforward): PositionwiseFeedforwardLayer(
          (fc_1): Linear(in_features=240, out_features=512, bias=True)
          (fc_2): Linear(in_features=512, out_features=240, bias=True)
          (dropout): Dropout(p=0.2, inplace=False)
        )
        (attention_dropout): Dropout(p=0.2, inplace=False)
        (ff_dropout): Dropout(p=0.2, inplace=False)
      )
    )
    (dropout): Dropout(p=0.2, inplace=False)
  )
  (decoder): Decoder(
    (word_embeddings): WordEmbeddings(12476, 240)
    (pe): PositionEmbeddings(200, 240)
    (layers): ModuleList(
      (0-1): 2 x DecoderLayer(
        (self_attention): MultiHeadAttentionLayer(
          (fc_q): Linear(in_features=240, out_features=240, bias=True)
          (fc_k): Linear(in_features=240, out_features=240, bias=True)
          (fc_v): Linear(in_features=240, out_features=240, bias=True)
          (fc_o): Linear(in_features=240, out_features=240, bias=True)
          (dropout): Dropout(p=0.2, inplace=False)
        )
        (attention): MultiHeadAttentionLayer(
          (fc_q): Linear(in_features=240, out_features=240, bias=True)
          (fc_k): Linear(in_features=240, out_features=240, bias=True)
          (fc_v): Linear(in_features=240, out_features=240, bias=True)
          (fc_o): Linear(in_features=240, out_features=240, bias=True)
          (dropout): Dropout(p=0.2, inplace=False)
        )
        (positionwise_feedforward): PositionwiseFeedforwardLayer(
          (fc_1): Linear(in_features=240, out_features=512, bias=True)
          (fc_2): Linear(in_features=512, out_features=240, bias=True)
          (dropout): Dropout(p=0.2, inplace=False)
        )
        (self_attention_layer_norm): LayerNorm((240,), eps=1e-05, elementwise_affine=True)
        (attention_layer_norm): LayerNorm((240,), eps=1e-05, elementwise_affine=True)
        (ff_layer_norm): LayerNorm((240,), eps=1e-05, elementwise_affine=True)
        (self_attention_dropout): Dropout(p=0.2, inplace=False)
        (attention_dropout): Dropout(p=0.2, inplace=False)
        (ff_dropout): Dropout(p=0.2, inplace=False)
      )
    )
    (dropout): Dropout(p=0.2, inplace=False)
  )
  (fc): Linear(in_features=240, out_features=12476, bias=True)
)
Trainable parameters: 12031084
2025-11-04 16:38:50,267 [INFO]: Train Epoch: 1 | train_loss: 4.323648 | val_loss: 3.798138 | BLEU: 0.0570 | Acc: 0.3794 | PPL: 44.6180
2025-11-04 16:38:50,376 [INFO]: Saving current best: ./checkpoint/h_dim120/model_best.pt
2025-11-04 16:39:32,365 [INFO]: Train Epoch: 6 | train_loss: 3.359141 | val_loss: 3.220511 | BLEU: 0.1116 | Acc: 0.4511 | PPL: 25.0409
…
2025-11-04 17:09:39,515 [INFO]: Saving current best: ./checkpoint/basetest/model_best.pt
2025-11-04 17:11:24,482 [INFO]: Train Epoch: 10 | train_loss: 3.167261 | val_loss: 3.034938 | BLEU: 0.1407 | Acc: 0.4840 | PPL: 20.7997
2025-11-04 17:11:24,682 [INFO]: Saving current best: ./checkpoint/basetest/model_best.pt
2025-11-04 17:11:24,831 [INFO]: Saving checkpoint: ./checkpoint/basetest/checkpoint_epoch_10.pt
2025-11-04 17:12:03,083 [INFO]: Transformer(
  (encoder): Encoder(
    (word_embeddings): WordEmbeddings(14813, 192)
    (pe): PositionEmbeddings(200, 192)
    (layers): ModuleList(
      (0-1): 2 x EncoderLayer(
        (attention): MultiHeadAttentionLayer(
          (fc_q): Linear(in_features=192, out_features=192, bias=True)
          (fc_k): Linear(in_features=192, out_features=192, bias=True)
          (fc_v): Linear(in_features=192, out_features=192, bias=True)
          (fc_o): Linear(in_features=192, out_features=192, bias=True)
          (dropout): Dropout(p=0.05, inplace=False)
        )
        (attention_layer_norm): LayerNorm((192,), eps=1e-05, elementwise_affine=True)
        (ff_layer_norm): LayerNorm((192,), eps=1e-05, elementwise_affine=True)
        (positionwise_feedforward): PositionwiseFeedforwardLayer(
          (fc_1): Linear(in_features=192, out_features=512, bias=True)
          (fc_2): Linear(in_features=512, out_features=192, bias=True)
          (dropout): Dropout(p=0.05, inplace=False)
        )
        (attention_dropout): Dropout(p=0.05, inplace=False)
        (ff_dropout): Dropout(p=0.05, inplace=False)
      )
    )
    (dropout): Dropout(p=0.05, inplace=False)
  )
  (decoder): Decoder(
    (word_embeddings): WordEmbeddings(12476, 192)
    (pe): PositionEmbeddings(200, 192)
    (layers): ModuleList(
      (0-1): 2 x DecoderLayer(
        (self_attention): MultiHeadAttentionLayer(
          (fc_q): Linear(in_features=192, out_features=192, bias=True)
          (fc_k): Linear(in_features=192, out_features=192, bias=True)
          (fc_v): Linear(in_features=192, out_features=192, bias=True)
          (fc_o): Linear(in_features=192, out_features=192, bias=True)
          (dropout): Dropout(p=0.05, inplace=False)
        )
        (attention): MultiHeadAttentionLayer(
          (fc_q): Linear(in_features=192, out_features=192, bias=True)
          (fc_k): Linear(in_features=192, out_features=192, bias=True)
          (fc_v): Linear(in_features=192, out_features=192, bias=True)
          (fc_o): Linear(in_features=192, out_features=192, bias=True)
          (dropout): Dropout(p=0.05, inplace=False)
        )
        (positionwise_feedforward): PositionwiseFeedforwardLayer(
          (fc_1): Linear(in_features=192, out_features=512, bias=True)
          (fc_2): Linear(in_features=512, out_features=192, bias=True)
          (dropout): Dropout(p=0.05, inplace=False)
        )
        (self_attention_layer_norm): LayerNorm((192,), eps=1e-05, elementwise_affine=True)
        (attention_layer_norm): LayerNorm((192,), eps=1e-05, elementwise_affine=True)
        (ff_layer_norm): LayerNorm((192,), eps=1e-05, elementwise_affine=True)
        (self_attention_dropout): Dropout(p=0.05, inplace=False)
        (attention_dropout): Dropout(p=0.05, inplace=False)
        (ff_dropout): Dropout(p=0.05, inplace=False)
      )
    )
    (dropout): Dropout(p=0.05, inplace=False)
  )
  (fc): Linear(in_features=192, out_features=12476, bias=True)
)
Trainable parameters: 9406588
2025-11-04 17:12:12,540 [INFO]: Transformer(
  (encoder): Encoder(
    (word_embeddings): WordEmbeddings(14813, 192)
    (pe): PositionEmbeddings(200, 192)
    (layers): ModuleList(
      (0-1): 2 x EncoderLayer(
        (attention): MultiHeadAttentionLayer(
          (fc_q): Linear(in_features=192, out_features=192, bias=True)
          (fc_k): Linear(in_features=192, out_features=192, bias=True)
          (fc_v): Linear(in_features=192, out_features=192, bias=True)
          (fc_o): Linear(in_features=192, out_features=192, bias=True)
          (dropout): Dropout(p=0.1, inplace=False)
        )
        (attention_layer_norm): LayerNorm((192,), eps=1e-05, elementwise_affine=True)
        (ff_layer_norm): LayerNorm((192,), eps=1e-05, elementwise_affine=True)
        (positionwise_feedforward): PositionwiseFeedforwardLayer(
          (fc_1): Linear(in_features=192, out_features=512, bias=True)
          (fc_2): Linear(in_features=512, out_features=192, bias=True)
          (dropout): Dropout(p=0.1, inplace=False)
        )
        (attention_dropout): Dropout(p=0.1, inplace=False)
        (ff_dropout): Dropout(p=0.1, inplace=False)
      )
    )
    (dropout): Dropout(p=0.1, inplace=False)
  )
  (decoder): Decoder(
    (word_embeddings): WordEmbeddings(12476, 192)
    (pe): PositionEmbeddings(200, 192)
    (layers): ModuleList(
      (0-1): 2 x DecoderLayer(
        (self_attention): MultiHeadAttentionLayer(
          (fc_q): Linear(in_features=192, out_features=192, bias=True)
          (fc_k): Linear(in_features=192, out_features=192, bias=True)
          (fc_v): Linear(in_features=192, out_features=192, bias=True)
          (fc_o): Linear(in_features=192, out_features=192, bias=True)
          (dropout): Dropout(p=0.1, inplace=False)
        )
        (attention): MultiHeadAttentionLayer(
          (fc_q): Linear(in_features=192, out_features=192, bias=True)
          (fc_k): Linear(in_features=192, out_features=192, bias=True)
          (fc_v): Linear(in_features=192, out_features=192, bias=True)
          (fc_o): Linear(in_features=192, out_features=192, bias=True)
          (dropout): Dropout(p=0.1, inplace=False)
        )
        (positionwise_feedforward): PositionwiseFeedforwardLayer(
          (fc_1): Linear(in_features=192, out_features=512, bias=True)
          (fc_2): Linear(in_features=512, out_features=192, bias=True)
          (dropout): Dropout(p=0.1, inplace=False)
        )
        (self_attention_layer_norm): LayerNorm((192,), eps=1e-05, elementwise_affine=True)
        (attention_layer_norm): LayerNorm((192,), eps=1e-05, elementwise_affine=True)
        (ff_layer_norm): LayerNorm((192,), eps=1e-05, elementwise_affine=True)
        (self_attention_dropout): Dropout(p=0.1, inplace=False)
        (attention_dropout): Dropout(p=0.1, inplace=False)
        (ff_dropout): Dropout(p=0.1, inplace=False)
      )
    )
    (dropout): Dropout(p=0.1, inplace=False)
  )
  (fc): Linear(in_features=192, out_features=12476, bias=True)
)
Trainable parameters: 9406588
2025-11-04 17:13:25,614 [INFO]: Train Epoch: 11 | train_loss: 3.161005 | val_loss: 3.035709 | BLEU: 0.1398 | Acc: 0.4838 | PPL: 20.8157
2025-11-04 17:14:13,936 [INFO]: Train Epoch: 1 | train_loss: 3.951615 | val_loss: 3.458710 | BLEU: 0.0883 | Acc: 0.4209 | PPL: 31.7760
2025-11-04 17:14:14,115 [INFO]: Saving current best: ./checkpoint/drop0.05/model_best.pt
…
2025-11-05 16:03:24,970 [INFO]: Train Epoch: 9 | train_loss: 3.908896 | val_loss: 3.595485 | BLEU: 0.0773 | Acc: 0.4093 | PPL: 36.4334
2025-11-05 16:03:25,168 [INFO]: Saving current best: ./checkpoint/drop0.3/model_best.pt
2025-11-05 16:06:36,663 [INFO]: Train Epoch: 10 | train_loss: 3.909917 | val_loss: 3.595630 | BLEU: 0.0754 | Acc: 0.4090 | PPL: 36.4387
2025-11-05 16:06:36,819 [INFO]: Saving checkpoint: ./checkpoint/drop0.3/checkpoint_epoch_10.pt
2025-11-06 15:24:18,600 [INFO]: Transformer(
  (encoder): Encoder(
    (word_embeddings): WordEmbeddings(12476, 192)
    (pe): PositionEmbeddings(200, 192)
    (layers): ModuleList(
      (0-1): 2 x EncoderLayer(
        (attention): MultiHeadAttentionLayer(
          (fc_q): Linear(in_features=192, out_features=192, bias=True)
          (fc_k): Linear(in_features=192, out_features=192, bias=True)
          (fc_v): Linear(in_features=192, out_features=192, bias=True)
          (fc_o): Linear(in_features=192, out_features=192, bias=True)
          (dropout): Dropout(p=0.2, inplace=False)
        )
        (attention_layer_norm): LayerNorm((192,), eps=1e-05, elementwise_affine=True)
        (ff_layer_norm): LayerNorm((192,), eps=1e-05, elementwise_affine=True)
        (positionwise_feedforward): PositionwiseFeedforwardLayer(
          (fc_1): Linear(in_features=192, out_features=512, bias=True)
          (fc_2): Linear(in_features=512, out_features=192, bias=True)
          (dropout): Dropout(p=0.2, inplace=False)
        )
        (attention_dropout): Dropout(p=0.2, inplace=False)
        (ff_dropout): Dropout(p=0.2, inplace=False)
      )
    )
    (dropout): Dropout(p=0.2, inplace=False)
  )
  (decoder): Decoder(
    (word_embeddings): WordEmbeddings(14813, 192)
    (pe): PositionEmbeddings(200, 192)
    (layers): ModuleList(
      (0-1): 2 x DecoderLayer(
        (self_attention): MultiHeadAttentionLayer(
          (fc_q): Linear(in_features=192, out_features=192, bias=True)
          (fc_k): Linear(in_features=192, out_features=192, bias=True)
          (fc_v): Linear(in_features=192, out_features=192, bias=True)
          (fc_o): Linear(in_features=192, out_features=192, bias=True)
          (dropout): Dropout(p=0.2, inplace=False)
        )
        (attention): MultiHeadAttentionLayer(
          (fc_q): Linear(in_features=192, out_features=192, bias=True)
          (fc_k): Linear(in_features=192, out_features=192, bias=True)
          (fc_v): Linear(in_features=192, out_features=192, bias=True)
          (fc_o): Linear(in_features=192, out_features=192, bias=True)
          (dropout): Dropout(p=0.2, inplace=False)
        )
        (positionwise_feedforward): PositionwiseFeedforwardLayer(
          (fc_1): Linear(in_features=192, out_features=512, bias=True)
          (fc_2): Linear(in_features=512, out_features=192, bias=True)
          (dropout): Dropout(p=0.2, inplace=False)
        )
        (self_attention_layer_norm): LayerNorm((192,), eps=1e-05, elementwise_affine=True)
        (attention_layer_norm): LayerNorm((192,), eps=1e-05, elementwise_affine=True)
        (ff_layer_norm): LayerNorm((192,), eps=1e-05, elementwise_affine=True)
        (self_attention_dropout): Dropout(p=0.2, inplace=False)
        (attention_dropout): Dropout(p=0.2, inplace=False)
        (ff_dropout): Dropout(p=0.2, inplace=False)
      )
    )
    (dropout): Dropout(p=0.2, inplace=False)
  )
  (fc): Linear(in_features=192, out_features=14813, bias=True)
)
Trainable parameters: 9857629
2025-11-06 15:27:31,261 [INFO]: Train Epoch: 1 | train_loss: 4.419202 | val_loss: 3.881738 | BLEU: 0.0398 | Acc: 0.3642 | PPL: 48.5085
2025-11-06 15:27:31,443 [INFO]: Saving current best: ./checkpoint/en2de/model_best.pt
2025-11-06 15:29:51,268 [INFO]: Transformer(
  (encoder): Encoder(
    (word_embeddings): WordEmbeddings(14813, 192)
    (pe): PositionEmbeddings(200, 192)
    (layers): ModuleList(
      (0-1): 2 x EncoderLayer(
        (attention): MultiHeadAttentionLayer(
          (fc_q): Linear(in_features=192, out_features=192, bias=True)
          (fc_k): Linear(in_features=192, out_features=192, bias=True)
          (fc_v): Linear(in_features=192, out_features=192, bias=True)
          (fc_o): Linear(in_features=192, out_features=192, bias=True)
          (dropout): Dropout(p=0.2, inplace=False)
        )
        (attention_layer_norm): LayerNorm((192,), eps=1e-05, elementwise_affine=True)
        (ff_layer_norm): LayerNorm((192,), eps=1e-05, elementwise_affine=True)
        (positionwise_feedforward): PositionwiseFeedforwardLayer(
          (fc_1): Linear(in_features=192, out_features=512, bias=True)
          (fc_2): Linear(in_features=512, out_features=192, bias=True)
          (dropout): Dropout(p=0.2, inplace=False)
        )
        (attention_dropout): Dropout(p=0.2, inplace=False)
        (ff_dropout): Dropout(p=0.2, inplace=False)
      )
    )
    (dropout): Dropout(p=0.2, inplace=False)
  )
  (decoder): Decoder(
    (word_embeddings): WordEmbeddings(12476, 192)
    (pe): PositionEmbeddings(200, 192)
    (layers): ModuleList(
      (0-1): 2 x DecoderLayer(
        (self_attention): MultiHeadAttentionLayer(
          (fc_q): Linear(in_features=192, out_features=192, bias=True)
          (fc_k): Linear(in_features=192, out_features=192, bias=True)
          (fc_v): Linear(in_features=192, out_features=192, bias=True)
          (fc_o): Linear(in_features=192, out_features=192, bias=True)
          (dropout): Dropout(p=0.2, inplace=False)
        )
        (attention): MultiHeadAttentionLayer(
          (fc_q): Linear(in_features=192, out_features=192, bias=True)
          (fc_k): Linear(in_features=192, out_features=192, bias=True)
          (fc_v): Linear(in_features=192, out_features=192, bias=True)
          (fc_o): Linear(in_features=192, out_features=192, bias=True)
          (dropout): Dropout(p=0.2, inplace=False)
        )
        (positionwise_feedforward): PositionwiseFeedforwardLayer(
          (fc_1): Linear(in_features=192, out_features=512, bias=True)
          (fc_2): Linear(in_features=512, out_features=192, bias=True)
          (dropout): Dropout(p=0.2, inplace=False)
        )
        (self_attention_layer_norm): LayerNorm((192,), eps=1e-05, elementwise_affine=True)
        (attention_layer_norm): LayerNorm((192,), eps=1e-05, elementwise_affine=True)
        (ff_layer_norm): LayerNorm((192,), eps=1e-05, elementwise_affine=True)
        (self_attention_dropout): Dropout(p=0.2, inplace=False)
        (attention_dropout): Dropout(p=0.2, inplace=False)
        (ff_dropout): Dropout(p=0.2, inplace=False)
      )
    )
    (dropout): Dropout(p=0.2, inplace=False)
  )
  (fc): Linear(in_features=192, out_features=12476, bias=True)
)
Trainable parameters: 9406588
2025-11-06 15:30:40,238 [INFO]: Transformer(
  (encoder): Encoder(
    (word_embeddings): WordEmbeddings(14813, 192)
    (pe): PositionEmbeddings(200, 192)
    (layers): ModuleList(
      (0-1): 2 x EncoderLayer(
        (attention): MultiHeadAttentionLayer(
          (fc_q): Linear(in_features=192, out_features=192, bias=True)
          (fc_k): Linear(in_features=192, out_features=192, bias=True)
          (fc_v): Linear(in_features=192, out_features=192, bias=True)
          (fc_o): Linear(in_features=192, out_features=192, bias=True)
          (dropout): Dropout(p=0.2, inplace=False)
        )
        (attention_layer_norm): LayerNorm((192,), eps=1e-05, elementwise_affine=True)
        (ff_layer_norm): LayerNorm((192,), eps=1e-05, elementwise_affine=True)
        (positionwise_feedforward): PositionwiseFeedforwardLayer(
          (fc_1): Linear(in_features=192, out_features=512, bias=True)
          (fc_2): Linear(in_features=512, out_features=192, bias=True)
          (dropout): Dropout(p=0.2, inplace=False)
        )
        (attention_dropout): Dropout(p=0.2, inplace=False)
        (ff_dropout): Dropout(p=0.2, inplace=False)
      )
    )
    (dropout): Dropout(p=0.2, inplace=False)
  )
  (decoder): Decoder(
    (word_embeddings): WordEmbeddings(12476, 192)
    (pe): PositionEmbeddings(200, 192)
    (layers): ModuleList(
      (0-1): 2 x DecoderLayer(
        (self_attention): MultiHeadAttentionLayer(
          (fc_q): Linear(in_features=192, out_features=192, bias=True)
          (fc_k): Linear(in_features=192, out_features=192, bias=True)
          (fc_v): Linear(in_features=192, out_features=192, bias=True)
          (fc_o): Linear(in_features=192, out_features=192, bias=True)
          (dropout): Dropout(p=0.2, inplace=False)
        )
        (attention): MultiHeadAttentionLayer(
          (fc_q): Linear(in_features=192, out_features=192, bias=True)
          (fc_k): Linear(in_features=192, out_features=192, bias=True)
          (fc_v): Linear(in_features=192, out_features=192, bias=True)
          (fc_o): Linear(in_features=192, out_features=192, bias=True)
          (dropout): Dropout(p=0.2, inplace=False)
        )
        (positionwise_feedforward): PositionwiseFeedforwardLayer(
          (fc_1): Linear(in_features=192, out_features=512, bias=True)
          (fc_2): Linear(in_features=512, out_features=192, bias=True)
          (dropout): Dropout(p=0.2, inplace=False)
        )
        (self_attention_layer_norm): LayerNorm((192,), eps=1e-05, elementwise_affine=True)
        (attention_layer_norm): LayerNorm((192,), eps=1e-05, elementwise_affine=True)
        (ff_layer_norm): LayerNorm((192,), eps=1e-05, elementwise_affine=True)
        (self_attention_dropout): Dropout(p=0.2, inplace=False)
        (attention_dropout): Dropout(p=0.2, inplace=False)
        (ff_dropout): Dropout(p=0.2, inplace=False)
      )
    )
    (dropout): Dropout(p=0.2, inplace=False)
  )
  (fc): Linear(in_features=192, out_features=12476, bias=True)
)
Trainable parameters: 9406588
2025-11-06 15:30:46,870 [INFO]: Train Epoch: 2 | train_loss: 3.981424 | val_loss: 3.662396 | BLEU: 0.0555 | Acc: 0.3933 | PPL: 38.9546
2025-11-06 15:30:47,065 [INFO]: Saving current best: ./checkpoint/en2de/model_best.pt
2025-11-06 15:32:25,572 [INFO]: Train Epoch: 1 | train_loss: 4.205213 | val_loss: 3.611218 | BLEU: 0.0730 | Acc: 0.3963 | PPL: 37.0111
…
